models/fire_model.tflite (tflite, 2628 bytes, 6 tensors)

arith.constant f4 [3, 8]
0.19778764 -0.8709659 0.004029119 0.5975906 0.6633519 -0.75295603 -0.6985858 -0.7308654
-0.12676768 0.20857227 0.115576126 0.049030866 0.26106024 -0.28867647 0.6160668 -0.60869867
-0.7845181 0.55197066 -0.80108523 -0.8168071 -0.24923632 -0.034052007 0.008231743 0.20949416
00000000: d888 4a3e 9ff7 5ebf b306 843b b3fb 183f
00000010: 6ed1 293f bac1 40bf 85d6 32bf ff19 3bbf
00000020: 63cf 01be f893 553e 2db3 ec3d 97d4 483d
00000030: b0a9 853e 67cd 93be 8eb6 1d3f add3 1bbf
00000040: 2ed6 48bf f34d 0d3f ec13 4dbf 451a 51bf
00000050: ce37 7fbe 1e7a 0bbd 6fde 063c a385 563e

arith.constant1 f4 [8, 8]
0.5261384 0.75750595 -0.15994084 0.106696375 -0.1759461 -0.28428844 0.77204597 -0.51302063
-0.0039262953 0.7852397 -0.42219442 -0.42434183 0.39820334 0.6042345 0.0026181915 0.34207574
0.8192558 0.54117906 -0.4378605 0.019000579 -0.0074632363 0.4133696 -0.026811365 -0.66602236
-0.19468156 -0.114153884 -0.36834818 -0.16147904 -0.29456085 -0.0022289318 0.6633573 -0.34465608
0.48940673 0.47665718 0.1082704 0.906451 -0.42298862 -0.10834436 0.6404986 -0.32931975
-0.42754403 0.17738162 0.44311374 -0.21941507 0.5492714 0.66988844 0.2055083 0.62361157
0.20449904 -0.3801588 0.27720922 0.6277508 0.35463223 -0.72689784 -0.6057193 0.38785294
-0.27892616 0.11768391 -0.12376449 -0.35363355 -0.24664088 -0.15616395 -0.4999068 0.91509205
00000000: 02b1 063f e9eb 413f 88c7 23be a183 da3d
00000010: 372b 34be 418e 91be cea4 453f 5255 03bf
00000020: 27a8 80bb 7805 493f de29 d8be 5543 d9be
00000030: 4fe1 cb3e 1daf 1a3f f795 2b3b 8d24 af3e
00000040: c0ba 513f b68a 0a3f 402f e0be 1aa7 9b3c
00000050: 2a8e f4bb 2ea5 d33e 82a3 dbbc 7180 2abf
00000060: 9a5a 47be 83c9 e9bd 2298 bcbe c35a 25be
00000070: aed0 96be 4513 12bb c9d1 293f c376 b0be
00000080: 8593 fa3e 690c f43e dfbc dd3d 2c0d 683f
00000090: f791 d8be a6e3 ddbd b7f7 233f 999c a8be
000000a0: 0de7 dabe 87a3 353e cedf e23e 58ae 60be
000000b0: 0d9d 0c3f cf7d 2b3f c570 523e 02a5 1f3f
000000c0: 3268 513e 2da4 c2be 5eee 8d3e 47b4 203f
000000d0: 5b92 b53e fa15 3abf 6c10 1bbf a994 c63e
000000e0: 69cf 8ebe 4304 f13d 3d78 fdbd 750f b5be
000000f0: 6d8f 7cbe 71e9 1fbe c9f3 ffbe 7943 6a3f

arith.constant2 f4 [3]
-0.19916631 0.19464451 -0.051587924
00000000: 41f2 4bbe e450 473e dc4d 53bd

sequential_1/dense_1_2/BiasAdd/ReadVariableOp f4 [8]
0.26694816 0.2800119 0.10749384 0.16132197 0.21159248 0.3281754 0.22957548 0.20747748
00000000: 6ead 883e b85d 8f3e bb25 dc3d 9631 253e
00000010: b3ab 583e 9b06 a83e d615 6b3e fa74 543e

sequential_1/dense_1/BiasAdd/ReadVariableOp f4 [8]
0.28474575 0.20215455 -0.13645375 0.27743027 0.29192165 0.25047395 0.01567625 0.30509353
00000000: 32ca 913e 9a01 4f3e 88ba 0bbe 570b 8e3e
00000010: c176 953e 1f3e 803e 7b6b 803c 3835 9c3e

sequential_1/dense_1/MatMul f4 [8, 3]
-0.3053313 0.77292246 0.20495035 -0.69441843 -0.29741177 -0.9920089 0.08931676 -0.12598614
-0.5906818 0.1615396 0.44439748 -0.545159 0.9040071 -0.43009448 -0.54911613 -0.42346144
-0.88488436 -0.021225061 -0.6276798 0.46524748 -0.853826 0.6877542 -0.50608575 0.39541575
00000000: 6254 9cbe 3fde 453f 81de 513e 68c5 31bf
00000010: 5b46 98be 4cf4 7dbf b5eb b63d 8302 01be
00000020: ec36 17bf a36a 253e 1188 e33e 8a8f 0bbf
00000030: 026d 673f 5835 dcbe e092 0cbf f0cf d8be
00000040: c887 62bf 2ee0 adbc a0af 20bf eb34 ee3e
00000050: 5794 5abf a910 303f d68e 01bf ef73 ca3e
