models/flood_model.tflite (tflite, 2656 bytes, 6 tensors)

arith.constant f4 [3, 8]
00000000: 3703 9dbf 5b62 2f40 a285 0fbf dbda 27bd
00000010: 333a 84bf 164a 6e3f 1d4e edbd c1aa 86bf
00000020: 8c0c 023f 093d 06c0 fca8 f23d e0f1 cebe
00000030: f7b4 2e3f 3bcd 933e b058 803f 731e 1e3f
00000040: 438e a33e 952c 3dc0 d271 963e 7722 2f3f
00000050: 0717 053f f70d f9bf 7db0 ccbf fc83 03be
-1.2266606 2.7403781 -0.5606328 -0.0409802 -1.0330261 0.93081796 -0.115871646 -1.052086
0.50800395 -2.0974753 0.118486375 -0.4041891 0.6824488 0.28867516 1.0027065 0.6176521
0.31944475 -2.955846 0.29383713 0.68411964 0.5198826 -1.9457387 -1.599136 -0.12843317

arith.constant1 f4 [8, 8]
00000000: 3124 a2bf 6213 19bf 5a34 773f 34ee acbe
00000010: b4ee f8be df5a 293f 0673 d23c 1404 153f
00000020: 6998 6b3d 85a8 65c0 4183 b8bf 5fdd c8bf
00000030: 42ab 9fc0 a82a c43b 8099 2ec0 9259 4d3c
00000040: 2471 e4be 5163 343e d755 903e 25d3 1f3f
00000050: 87d1 b83e 18e5 0f3f 9616 bc3d e0ce d93e
00000060: 229b d3bf 1873 143f 492a 393e 65d5 f43e
00000070: 147f 953e 2b7c f2bf 44fa 323f 3fe3 df3e
00000080: 944d 0b3f ea62 df3d ca99 49bf 3bb7 583f
00000090: a024 7d3d 1165 b5be ee2f 043c cc14 ccbf
000000a0: 9269 963f 3163 17be 4cb2 073e d426 81bf
000000b0: c7f6 f9bd cd3f 923f 3bc9 8bbd dcc0 20bf
000000c0: 04fc 6c3f 3b09 2a3d 75bf ffbd 9e06 5abc
000000d0: c91f 303d 17ed e5bf a840 2cbe 708d d4be
000000e0: 592d 86be 65b8 093f 5c87 57be 224b ac3e
000000f0: a37d 873e b250 003f 9f80 67be 7740 9e3d
-1.2667295 -0.597952 0.9656426 -0.33775485 -0.48619616 0.66154283 0.025689613 0.5820935
0.057518397 -3.5884106 -1.4415056 -1.5692557 -4.9896555 0.0059865303 -2.728119 0.012533562
-0.4461757 0.17616011 0.2819049 0.62431556 0.36097357 0.56208944 0.091839954 0.42540646
-1.6531718 0.5798812 0.18082537 0.47819057 0.29198515 -1.8944143 0.69913125 0.43728063
0.5441525 0.10907538 -0.7875029 0.8465459 0.061802506 -0.3542867 0.008068068 -1.5943847
1.1750968 -0.14783932 0.13251609 -1.0089974 -0.12205272 1.142572 -0.06825491 -0.6279428
0.92572045 0.04151271 -0.124876894 -0.013307242 0.042999063 -1.7962979 -0.1682154 -0.41514158
-0.26206473 0.5379699 -0.21047729 0.33651072 0.2646304 0.5012313 -0.22607659 0.077271394

arith.constant2 f4 [3]
00000000: 2bf3 a33e 39e2 f83d 38d8 88bf
0.3202146 0.121525235 -1.0690985

sequential_1/dense_1_2/BiasAdd/ReadVariableOp f4 [8]
00000000: 45e7 06bd 590a 573f 373a 543e b761 babe
00000010: 98ec fc3d e15d 663f ea79 883f 1aff e33d
-0.0329354 0.84000164 0.20725332 -0.36402676 0.12349814 0.89987 1.0662205 0.11132641

sequential_1/dense_1/BiasAdd/ReadVariableOp f4 [8]
00000000: 8874 3bbe df06 273f 2286 51bf 90cf a73e
00000010: c155 5d3f 8385 0bbf 0977 9bbd e455 3fbe
-0.18306172 0.6524486 -0.81845295 0.32775545 0.86458975 -0.545006 -0.075910635 -0.18685108

sequential_1/dense_1/MatMul f4 [8, 4]
00000000: f215 76bc 120b 58bf 7b85 653e 812a 363f
00000010: 4940 e53c 7a81 9a3f 5224 563f ad7a 8c3c
00000020: 0da8 8c3f c21f 2d3e b5be 003b b4ee 4f3c
00000030: dc72 37be 0f2c 4e3e 55ed 673f 79f5 b23b
00000040: 2787 fe3c c98f aa3f bbce b33f 24dd 543c
00000050: f424 d3be 6dca a8bf 5b44 b7bf 673f dbbd
00000060: 3403 a53e 79d6 913f cb5a 4abf 2d4c d83c
00000070: 735a 4ebf cae2 933e ac43 f6bd 8a73 583d
-0.015019881 -0.8439189 0.224142 0.71158606 0.027984755 1.2070763 0.8364917 0.01714834
1.0988785 0.16906646 0.001964492 0.012691189 -0.17914909 0.20133995 0.90596515 0.0054613915
0.031070305 1.332513 1.4047464 0.012992177 -0.4123913 -1.3186775 -1.4317735 -0.107054524
0.32229006 1.1393577 -0.7904479 0.026403511 -0.80606765 0.28883964 -0.12024626 0.05284456
